build-in-resource/pretrained-model/lenet.pkl (torch_old, 248318 bytes, 10 tensors)

conv1.0.weight f4 [6, 1, 5, 5]
000000 97 76 17 bd 06 dd 5f be c2 3f 57 bd 70 a5 72 bc
       -0.03697833 -0.21861658 -0.05255104 -0.014809951
000010 18 7c a5 bd ed 91 06 bd 93 f2 34 be 4e f0 c8 3d
       -0.0808031 -0.03285401 -0.1767066 0.098114595
000020 3e 5d 77 bb 01 0a 44 be a3 12 41 be 26 58 c0 bd
       -0.0037744786 -0.19144441 -0.18854766 -0.09391813
000030 1c 07 86 bd f6 1e 3c 3e 75 03 24 3e e7 8c 39 3d
       -0.06544325 0.18371186 0.16016944 0.04530039
000040 66 eb 01 3e f2 c8 97 3e 28 c2 d9 3e 21 a2 5a 3e
       0.12687454 0.29645497 0.42530942 0.2135091
000050 02 5e a9 3e 26 74 60 3e a0 6b e7 3e 13 7e f3 3e
       0.33079535 0.21919307 0.451993 0.47557124
000060 ab 61 70 3e cd 81 62 3d 6e 7a e4 bd 38 7b 6d be
       0.23474757 0.05529957 -0.11156164 -0.23191535
000070 7c 37 87 3b ee 98 04 bd 23 cb 53 3e 50 55 e0 3d
       0.0041264873 -0.032372408 0.2068296 0.10953772
000080 8d b8 02 be 23 11 88 be d5 00 ce be 51 07 9f 3e
       -0.12765713 -0.26575574 -0.4023501 0.3106027
000090 f6 ab 87 3d 95 0b aa 3d 17 e5 63 3e d1 25 49 3e
       0.06624596 0.0830299 0.2225536 0.19643332
0000a0 f6 10 dd 3d 76 71 ad 3e b8 bf d7 3e 97 59 25 3e
       0.10794251 0.33875626 0.42138457 0.16147457
0000b0 76 9b 7a 3e bc 59 90 3d 93 f2 1a be a3 65 9a bd
       0.24473366 0.070483655 -0.15131597 -0.07538917
0000c0 b3 d5 35 3d 8a 4f e6 3d 0d b9 88 3d a9 85 56 3e
       0.044393253 0.112456396 0.06675921 0.20949425
0000d0 aa d8 3c 3d fe 03 ac 3e 95 40 15 3e d4 f5 4c be
       0.046105064 0.33596796 0.14575417 -0.20015651
0000e0 8e 58 48 be 8f 0a d7 bd 48 85 ce bc 05 73 85 3e
       -0.19565031 -0.10500061 -0.025210038 0.26064315
0000f0 ae 22 a9 bd 97 a8 ee bc 85 6d ea bd 53 29 18 be
       -0.08258568 -0.029133124 -0.114466704 -0.14859514
000100 1d d4 6c 3e 0c 42 79 be a3 bf 5c bd 00 41 7f be
       0.2312779 -0.24341601 -0.053893697 -0.2492714
000110 57 b5 56 3d f8 73 29 3e fb 39 54 be 8f c1 f1 bd
       0.052419033 0.16548145 -0.20725243 -0.118044965
000120 a9 67 23 be 17 76 b0 bd 22 9d 5c 3e d7 52 81 be
       -0.15957512 -0.08616274 0.21544316 -0.25258514
000130 2e 40 8a be 9c 86 66 3b 2d fa a8 3e 5d c9 a5 3d
       -0.2700209 0.0035175448 0.3300337 0.080950476
000140 52 15 25 bd 3f 5b c8 3b 32 4f a1 3e 98 4b 96 3e
       -0.040303536 0.006114393 0.31505734 0.29354548
000150 fc 65 52 bc 20 b3 61 3e 9b 4d 54 3e f5 3c aa 3e
       -0.012841698 0.22040987 0.20732729 0.33249632
000160 fe 7c a4 3e df 88 78 be 1e 5b 83 3d 1b 67 3a 3e
       0.3212661 -0.24270962 0.064138636 0.18203394
000170 a0 62 b5 3e 3d 12 45 3e 34 24 4f bd 70 ae 2a be
       0.35426807 0.19245239 -0.050571635 -0.16668105
000180 0f bc 27 be 79 9e 2b 3e fc ff 2c 3e b2 53 87 3e
       -0.16380332 0.16759671 0.16894525 0.26431042
000190 c3 b3 77 3d 5e e6 29 3e b3 53 39 3e 4c e8 94 bc
       0.06047417 0.16591784 0.18098335 -0.018177174
0001a0 c1 3c 80 3e 08 f8 53 be 65 df 71 bd e3 b0 a5 3e
       0.25046352 -0.20700085 -0.059050936 0.32361516
0001b0 af 76 b6 3e 2c fa 3d 3e a2 fe 96 bd 39 d4 a3 3e
       0.35637423 0.18552464 -0.07372786 0.3199785
0001c0 af 39 30 3f a2 a3 36 3f fc 06 ac 3e d0 d0 de 3d
       0.6883802 0.71343434 0.3359908 0.108796716
0001d0 2b d8 fe 3e d6 df 14 3f 04 24 5b 3e 3b 45 9c 3e
       0.49774298 0.58154047 0.21400458 0.3052157
0001e0 0d 14 86 3d dc a5 85 3e 64 42 f1 3d c5 92 73 3d
       0.06546793 0.26103103 0.11780241 0.059466142
0001f0 12 22 27 3d 12 52 8c 3e 2c 7d af 3d 22 7d 5a 3e
       0.040803976 0.27406365 0.085687965 0.21336797
000200 e8 c4 ff 3d 6a dc 20 be fe a4 1c be 5c 96 fe 3d
       0.12488729 -0.15709081 -0.15297315 0.124310225
000210 a6 ac 62 bc 06 7c 89 be 8e 19 66 be 63 41 85 be
       -0.013835108 -0.26852435 -0.22470686 -0.2602645
000220 1d 9b 58 be 0c e3 ba bd b9 a8 61 be 4f a9 3d bd
       -0.21152921 -0.09125337 -0.22037019 -0.046304043
000230 ba e8 6a 3d 5f 71 85 be f6 e2 85 be 74 ad 2a be
       0.05735085 -0.26063058 -0.2614972 -0.1666773
000240 e1 43 24 3e 4d 46 73 be 58 09 b1 3c 94 68 ee bd
       0.16041519 -0.23757286 0.0216109 -0.116410404
000250 7e c9 d8 b9 ef b6 86 3d
       -0.00041348854 0.065778606

conv1.0.bias f4 [6]
000000 80 1e 2f 3d a7 ab b6 bd 9d 4a 00 3e 3d bf 3c 3e
       0.042753696 -0.08919459 0.12528463 0.18432327
000010 cc e5 cc 3e 93 58 f1 3d
       0.4001907 0.11784472

conv2.0.weight f4 [16, 6, 5, 5]
000000 35 01 97 3c 34 e0 99 3d 89 65 59 bd 99 75 71 3d
       0.018433193 0.075134665 -0.053075347 0.05895004
000010 52 f9 69 3d 5a f0 30 3d fc 3f 6d bd c4 c0 28 bd
       0.057122536 0.043197967 -0.05792235 -0.04119946
000020 41 9e a0 3b 1d 11 dc bc 5a d7 bb bd 91 e4 76 3b
       0.004901678 -0.026863629 -0.091719344 0.0037672857
000030 e2 73 a1 3d 05 7a c4 3b 5c 88 2d be 17 92 3a 3d
       0.07883431 0.005995991 -0.16946548 0.04554948
000040 24 1b bf 3c 9b 28 87 bb dd 50 da 3b 4e 4b 9d bd
       0.023328371 -0.0041247136 0.0066624717 -0.07680379
000050 e9 65 d8 3d c2 1e f7 3c bd 46 0a bd 7b b1 06 bd
       0.10566313 0.030166034 -0.033758868 -0.032884102
000060 77 c1 a1 ba 1d 1a dc 3c 31 dd 2c 3d 4b 22 9f 3d
       -0.0012340982 0.02686792 0.042203132 0.07770213
000070 9b ef 64 3d 66 29 46 3c c8 b4 89 3d 95 d6 e4 bc
       0.055892568 0.012094831 0.067239344 -0.027934352
000080 e7 1a 41 bd c4 5b ad ba bc 06 06 3b e3 f2 72 bc
       -0.047144797 -0.0013226201 0.0020450791 -0.0148284165
000090 a6 05 67 3c e8 f8 11 3d 48 be a0 bd 32 3a ab bc
       0.014100468 0.035637766 -0.07848793 -0.020901773
0000a0 0b 0e 20 3d 4e b1 01 be 31 d5 ab bc fb bf 50 3c
       0.039075892 -0.12665293 -0.020975681 0.012741084
0000b0 f2 0b 34 bd 97 b5 7b bd bb 24 85 bd 15 f3 4d 3d
       -0.043956704 -0.061452474 -0.065011464 0.05028065
0000c0 aa 75 1c bd bd 8b 18 bd 3b 6a 01 bd 01 2a 24 bc
       -0.03819815 -0.03724264 -0.03159545 -0.01001978
0000d0 b0 b7 dd ba 77 42 57 3d 86 9d 9a bd 83 b7 7e 3d
       -0.0016915705 0.05255362 -0.075495765 0.06218673
0000e0 30 04 a3 3c fc dc 76 3c 4f 56 01 bd 6d ed 26 bd
       0.019899458 0.015067335 -0.03157645 -0.04075377
0000f0 cc 3b 7b bb 6a e8 d0 3c b7 31 3c bd 51 e7 0a be
       -0.0038335202 0.025501449 -0.04594585 -0.13564803
000100 4b 6e b3 bd 8f 93 f0 3c e6 eb 9c bd aa 7a b2 bc
       -0.08761271 0.029367236 -0.076621816 -0.021787006
000110 eb 22 54 bd 65 6d 75 3c 87 2e c7 bd f9 2a a0 bd
       -0.051791113 0.014979695 -0.09725671 -0.078206964
000120 24 c5 ba bd fe d0 4f bd 2d 95 28 bd 31 3c b8 bc
       -0.09119633 -0.05073642 -0.04115789 -0.022489639
000130 7b ec 67 bd 6a 6d c6 3c e0 59 bc bb f4 90 25 bd
       -0.05662201 0.024222095 -0.0057480186 -0.04042144
000140 63 12 c6 3d 0e 4b ba bd 8f d7 12 bd 8a 02 8f 3d
       0.09671476 -0.09096347 -0.035850104 0.06982906
000150 38 dd 93 bd 0f c5 7a 3b 69 62 22 bd 91 4a c1 bc
       -0.072199285 0.0038264429 -0.039644632 -0.023595126
000160 40 b2 36 3d db d4 88 bd 61 d1 a7 bd 6f 0f 0e bc
       0.044603586 -0.06681224 -0.08194233 -0.008670672
000170 40 06 2b 3e dc 90 bd 3d 95 37 da bd a9 55 66 3d
       0.16701603 0.09256145 -0.10655133 0.056234036
000180 6b d9 bc 3d db a8 c3 3c 99 28 d1 3c 47 78 d2 bd
       0.09221157 0.023884227 0.025532054 -0.10276847
000190 ff 15 10 3d b6 0a 17 bc 31 86 cf bd af d5 a4 3b
       0.035177227 -0.009218862 -0.10133017 0.005030356
0001a0 66 7b d1 bd 9a cc c5 bc 5c 10 cc bd f6 b0 90 bc
       -0.102286145 -0.024145413 -0.09964058 -0.017662507
0001b0 0f ad ca 3d f0 13 95 3d a5 2e 91 bc 5e c7 cb bd
       0.098962896 0.072791934 -0.017722437 -0.09950136
0001c0 22 50 1c 3e e9 a1 81 3e d0 f8 a9 bc b2 c9 85 bd
       0.15264943 0.2531884 -0.020748526 -0.06532611
0001d0 82 a1 29 3e e9 26 0f 3e a7 32 cd bc a4 65 eb bd
       0.16565517 0.13979687 -0.025048567 -0.11493996
0001e0 ce 54 db 3d 5e ba f2 3d a0 e5 f9 b9 4c 09 1c be
       0.107095346 0.11851953 -0.00047664065 -0.15237921
0001f0 79 d3 c3 bd af 00 d2 bc 6c 30 29 3d 84 24 8b bd
       -0.095618196 -0.025635092 0.041305944 -0.06794074
000200 c8 34 9c 3c f5 de 79 bd 90 ee f0 3a 75 dc 9e bd
       0.019068137 -0.061003644 0.0018381644 -0.077568926
000210 f8 79 a9 bd fa bf 25 3c 6f fa 28 3d 53 85 11 3d
       -0.08275217 0.010116572 0.041254457 0.03552754
000220 ea cc 6a bc ea 7a 19 bd 12 2a 33 bd 5c 07 bc bd
       -0.014331082 -0.037470736 -0.043741293 -0.09181091
000230 1d ed 56 3d 37 d0 3b 3c b8 54 8a bd 4a 26 8a bd
       0.052472223 0.0114632165 -0.0675444 -0.06745584
000240 b5 33 7a bd d2 32 8e bb e3 23 94 bd 99 99 43 bc
       -0.061084468 -0.0043395543 -0.07233407 -0.011938476
000250 6f d8 23 3c e2 31 45 3d c7 6e e0 bc 23 23 f5 3d
       0.010000332 0.048143275 -0.027396573 0.119695924
000260 37 4b 87 bd 8b b5 43 ba 30 27 6e bd 90 1f c7 3c
       -0.06606143 -0.00074657117 -0.05814284 0.024307042
000270 5d 7d 0b 3d d6 85 98 3d 83 69 24 3c d1 d5 86 bd
       0.034055103 0.07447402 0.010034922 -0.06583751
000280 60 2c bd bd 4f b3 5b bc 8a 9e c7 3d 62 35 15 3e
       -0.092369795 -0.01340945 0.09747036 0.14571145
000290 62 b1 f2 3d 78 d6 ae bd 50 ff 67 bc f2 34 f6 bd
       0.11850239 -0.085370004 -0.014159992 -0.12021817
0002a0 53 60 c9 bd ee 92 00 3d 10 7f 96 3d 5e 45 ba bb
       -0.098328255 0.031390123 0.07348454 -0.0056845387
0002b0 c8 70 64 3d 45 68 92 bd 66 4e 5e 3c 00 58 88 3d
       0.05577162 -0.07148794 0.013568496 0.0665741
0002c0 60 e1 a1 3d ba f4 a2 3d f6 51 3a bd 46 1c 60 3c
       0.07904315 0.07956834 -0.04548832 0.013678616
0002d0 8f 8a fa 3b ae 5f d6 3d f6 ad 1f 3e d8 3d 0f 3e
       0.007645912 0.10467468 0.15593705 0.13988435
0002e0 db 6d 6d 3d f6 8d 3b bd a5 b2 85 3d 15 58 50 3e
       0.057966094 -0.04578968 0.06528214 0.203461
0002f0 7c 4f 75 3e e2 1f 94 3d 11 3f 13 bc f5 84 79 bd
       0.23956102 0.07232644 -0.008987204 -0.060917813
000300 28 e4 00 3d b8 d6 99 3d e5 59 9c 3d 98 61 a4 bd
       0.031467587 0.075116575 0.076343335 -0.08026427
000310 9b 1e 5a 3d 09 28 c6 3c 91 89 1d bd 53 00 84 bc
       0.053251844 0.024189012 -0.03846127 -0.016113436
000320 14 4c 8f bd 09 40 45 bd 02 d7 c7 bc 73 6d 16 3d
       -0.069969326 -0.04815677 -0.024394516 0.036725473
000330 64 a5 77 bd ae 37 cf 3d 25 48 ba 3d 23 45 95 bc
       -0.060460463 0.10118042 0.09095792 -0.018221444
000340 60 9a b5 bd 55 7c 9c ba de e7 62 3d c0 16 18 3e
       -0.08867335 -0.0011938909 0.055396907 0.14852428
000350 51 c5 74 3d 19 c5 b8 bd 0c 7f df bc a8 b2 cb 3c
       0.059758488 -0.090219684 -0.02728226 0.024865463
000360 2e 85 e9 3d 99 50 df 3c 44 34 da 3d dd dc 47 3c
       0.11402355 0.027260112 0.106545 0.012198654
000370 e1 b9 5a 3a 3a 84 8f bb e1 80 c8 3d 42 e9 0c 3e
       0.0008343738 -0.0043797763 0.09790207 0.13760856
000380 f4 63 5e 3d 33 7e 39 bd 38 9b d0 bc eb 0c 00 bc
       0.05429454 -0.04528637 -0.025464639 -0.00781558
000390 ac c2 80 3c eb 41 a3 bd b0 f2 cc 3d 0a 29 99 3d
       0.015717827 -0.07971557 0.100072265 0.07478531
0003a0 a6 31 27 3e 8a 37 25 3d c1 9c 6f bd de f3 89 bc
       0.16327533 0.04033617 -0.0584991 -0.016839918
0003b0 08 5b 6b bd a7 60 ea 3d b3 92 2c 3e f3 2c 00 3e
       -0.05745986 0.11444216 0.16852836 0.12517147
0003c0 be e5 01 bd 10 bf 03 be 4b 90 c0 bd f3 90 e9 3a
       -0.03171324 -0.12865853 -0.09402522 0.0017819687
0003d0 b4 1a 81 3d 09 06 13 bc ff 68 68 bc dd 84 17 be
       0.06303921 -0.008973607 -0.014185189 -0.14796777
0003e0 41 04 a8 bd 72 96 bc bb f8 a1 0c 3d dd e8 2b bd
       -0.08203936 -0.005755239 0.034334153 -0.041970123
0003f0 40 ca 19 bd 01 c4 0c be 5a cc dc bd cf 58 c2 3b
       -0.037546396 -0.13746645 -0.107811645 0.005930997

conv2.0.bias f4 [16]
000000 d1 2d 24 bd c4 7a 16 3c 97 b3 d7 bc 9e 71 9e 3d
       -0.040082756 0.009184543 -0.026330752 0.077365145
000010 67 f8 c8 bc 85 59 e2 bc 51 43 21 3d c2 1f 80 bc
       -0.02453251 -0.027630577 0.03937084 -0.015640143
000020 4f 7a e8 3c 41 e9 32 bd 3a ee 5d 3d 39 2f e2 bc
       0.028378634 -0.04367948 0.05418227 -0.027610408
000030 5c b0 5a 3b f9 f0 e0 bc 06 2b 83 3b a8 33 77 bd
       0.0033369279 -0.027458655 0.0040029315 -0.060351998

fc1.0.weight f4 [120, 400]
000000 0e f2 cf 3c 1d e0 4a bd be 0e 52 bc 6b 5b 1e 3d
       0.025383975 -0.049530137 -0.012820898 0.0386614
000010 f8 12 11 bd 7c 95 2c bd c5 4d b9 3b 1d 1d 05 bd
       -0.03541848 -0.042134747 0.005655023 -0.032498468
000020 32 f6 a9 bd 6f c0 81 bd e9 8c 6f bd 5b 88 ba bc
       -0.08298911 -0.06335532 -0.05848399 -0.022770097
000030 90 41 50 bd 21 23 7a bd 0e 4a 36 3d 99 dc 26 3c
       -0.050843775 -0.061068658 0.044504218 0.0101844305
000040 b3 8f 9e bd a4 1e 7f 3c f7 5a b5 3d 36 0d 3d 3d
       -0.07742252 0.01557127 0.08855241 0.046155177
000050 9c 2d d3 3c b1 36 2e bd 52 69 0f 3d 8f 81 df bb
       0.025778584 -0.042532627 0.03501255 -0.0068208645
000060 07 c5 e2 bc 8e ca 58 3c d8 d1 80 bc c5 b6 66 3c
       -0.02768184 0.013231887 -0.015725061 0.014081662
000070 e8 42 c0 3c 1f 1e 6b b9 95 90 0e 3d e5 54 13 3d
       0.023469403 -0.00022422567 0.034805853 0.035969634
000080 0b 4c 4d 3c 02 16 40 3d a2 dc 8e bc c8 d9 a8 39
       0.012530337 0.04689599 -0.01743919 0.00032205717
000090 0f ac f0 bc 9a 27 01 3d 01 96 93 3c 2a f9 75 3d
       -0.029378919 0.031531908 0.018015863 0.060052074
0000a0 40 a0 22 bd f7 15 5a bc 44 4e 26 3c 72 24 1b 3d
       -0.039703608 -0.013310901 0.010150496 0.037876554
0000b0 e0 8e 4b 3c 09 5c 18 bd 99 a5 7b bc 49 ed 23 bd
       0.012424201 -0.037197147 -0.015359306 -0.040021215
0000c0 01 03 32 bc 12 75 25 bd f9 f5 e7 bc 62 e5 f5 3c
       -0.010864974 -0.04039485 -0.028315531 0.030016605
0000d0 47 ed 09 3d 00 a6 13 bd 23 8d 20 bd aa 13 d9 3b
       0.03367355 -0.03604698 -0.0391971 0.0066246586
0000e0 a3 94 02 3d 84 41 1e bd 55 b8 cd bb 88 c3 36 3c
       0.031880032 -0.0386367 -0.0062780776 0.011155017
0000f0 44 59 0a 3c 43 92 45 3d 8c 1a 19 bd 94 23 1e 3d
       0.008444134 0.04823519 -0.037378833 0.03860815
000100 73 21 16 bd 33 74 09 bb 93 b3 40 bd 0a 06 8f bc
       -0.036652993 -0.00209738 -0.047046255 -0.017458934
000110 87 f1 87 bc ad ac 71 bc 95 a9 22 bd 4b a1 a7 bb
       -0.016594661 -0.014750642 -0.039712507 -0.005115663
000120 52 b0 a8 3c 08 88 96 ba 25 e0 f6 3c aa 78 47 bd
       0.020591889 -0.0011484632 0.030136177 -0.04869906
000130 7b 81 36 3d 09 9b ae bc c6 03 a8 3d cb 7b 91 3d
       0.044557076 -0.02131416 0.08203845 0.0710369
000140 3d b0 fb bb 03 c4 37 3c 99 e8 a4 3d c9 7e 58 3d
       -0.0076809213 0.011216166 0.08052177 0.052855287
000150 c2 17 03 bd 33 82 57 bb e5 0e a3 bc e6 d0 4f 3d
       -0.03200508 -0.0032884001 -0.019904563 0.05073633
000160 3a bc 3f bd 6e 63 8d bd 95 d7 f1 ba d4 30 c4 bc
       -0.046810366 -0.0690373 -0.0018451089 -0.023949064
000170 60 1d c2 bb e4 88 7c 3c 95 c4 bd 3c ee bc 32 bd
       -0.005923912 0.015413497 0.023165027 -0.04363721
000180 86 42 a9 bc f1 08 db 3b ab 35 d5 bc e4 92 a0 bc
       -0.020661604 0.0066844155 -0.026026567 -0.019601293
000190 8a 86 db 3c 90 8d 84 bc 34 7d 02 bd 37 3f 24 3d
       0.026797552 -0.016180784 -0.031857684 0.04009935
0001a0 82 96 f0 bc 96 62 34 bd ba ea 5a bd c4 e8 ce 3c
       -0.029368643 -0.04403933 -0.05344651 0.025257476
0001b0 93 8a 41 3c b2 bd 19 bd eb 50 80 bc 64 eb 17 3d
       0.011812824 -0.037534423 -0.015663585 0.03708972
0001c0 4d 8f 5e bb ad 60 88 bd 85 13 ec 3c b9 f2 95 bc
       -0.0033959926 -0.066590644 0.028817901 -0.018304216
0001d0 1f b8 98 bd 72 1d 34 bd 11 39 84 bd 7d b3 b4 bc
       -0.07456993 -0.043973394 -0.06456197 -0.022058243
0001e0 4f 97 b7 3c 45 55 23 bb 88 40 19 3d 72 f1 ab 3d
       0.022411017 -0.002492265 0.037415057 0.083956614
0001f0 10 74 28 bc 50 21 85 3d 6a 9a f4 bc 55 8e ac 3d
       -0.010281578 0.065004945 -0.029858787 0.08425585
000200 11 1f 95 3d fb 36 cc 3c 26 1c 41 bb 14 52 9a bc
       0.07281316 0.02492856 -0.002946624 -0.018837966
000210 33 3f 57 3c f7 8c 4e 3c 85 7b 45 3d 0f e8 1b 3c
       0.013137626 0.012606851 0.0482135 0.009515776
000220 ee 6a 4c bd 81 8f d1 bd b0 d7 1f bd fe a2 44 bc
       -0.049906664 -0.10232449 -0.039024055 -0.012001751
000230 40 25 ff 3c df 7a aa 3c a5 a5 1d bc e7 ca 43 3d
       0.031145692 0.020810543 -0.009622012 0.047800925
000240 0b 96 a4 3c 96 6e a1 3c e4 ec 7b bc 57 b0 8b 3d
       0.020091077 0.019706052 -0.015376303 0.068207435
000250 a6 21 ef 3c 2e 42 9e bc c4 2a 80 3c 8d fd fc 3c
       0.02919085 -0.019318666 0.015645392 0.030882621
000260 b4 2c 0b 3d 87 64 d6 bc 0a 5c 81 3c 58 83 ac bb
       0.03397818 -0.026170982 0.015790958 -0.005264681
000270 68 e2 ad 3b 3a 3d 1d 3b a9 c8 2d 3d 36 02 10 bc
       0.0053065307 0.0023992793 0.042427693 -0.00878959
000280 f3 4d 45 3d 44 fa 7e 3c 6e ab a1 3c a8 62 7a bb
       0.04817004 0.015562598 0.019735064 -0.0038205776
000290 ba 95 81 3b 08 f8 9f 3c e5 03 f5 bc 8d ac 22 3b
       0.0039546164 0.01952745 -0.029909084 0.0024822087
0002a0 ae 18 94 3c 50 94 53 3c 7c 76 32 bd 6e 07 d8 bc
       0.018078174 0.012913778 -0.043570027 -0.02637073
0002b0 2c a2 0d 3d 23 ce 60 3d 27 01 84 3c 6c f1 4a 3d
       0.034578487 0.054884087 0.01611383 0.049546644
0002c0 e1 ec 7e 3d db b3 d7 3b f0 3c 63 3d ce f8 78 3a
       0.062237624 0.0065827197 0.055478036 0.0009497524
0002d0 50 a0 52 3c 36 8a d2 bc ba 6f 7a bc 6d 30 ba bc
       0.012855604 -0.02570067 -0.015285427 -0.02272817
0002e0 9c 70 7f bd 10 31 9f bc 95 21 a0 bc 91 0f 36 3d
       -0.062363252 -0.019432575 -0.019547263 0.04444844
0002f0 ed a8 3f bc 0d 87 6f bd 92 33 14 3d d6 01 15 bd
       -0.01169799 -0.058478404 0.036181994 -0.036378704
000300 f2 80 e0 3b 1a 33 3f bb 56 49 1e 3d 46 15 77 bd
       0.006851309 -0.0029174746 0.038644157 -0.060323022
000310 8f a3 9d bb 13 8f f5 3b f3 ac 4f 3d 01 0b 0d 3c
       -0.0048107575 0.0074938624 0.050702047 0.008608581
000320 b3 32 17 3d 06 07 7e 3d 02 f6 e9 3b d0 3e 95 bb
       0.036913585 0.062018417 0.007139922 -0.004554607
000330 ed bb 55 bd bd 43 3b 3c c2 e4 03 3d ad ff c6 ba
       -0.052181173 0.011429724 0.032200582 -0.0015182398
000340 a0 3b e6 3c 6b d6 9d 3b dd e2 f8 bc de 24 39 3d
       0.028104603 0.0048168204 -0.030381614 0.045201175
000350 d2 60 bb 3c b3 e4 83 3b 76 5c 5e 3d 91 bb d2 3c
       0.022873316 0.004025066 0.054287396 0.025724204
000360 ed fc e8 bc 12 b7 33 bd b1 b2 03 bc 1b 51 30 3b
       -0.028440917 -0.04387576 -0.008038209 0.0026903811
000370 a4 59 24 3d 50 0a 0a bd d9 41 81 bc 25 2a 30 3d
       0.04012455 -0.03370124 -0.015778469 0.043008942
000380 df e0 d4 3c d4 21 55 3c 4d 13 28 3d 0d e7 ad 3c
       0.025986133 0.013008554 0.04103403 0.021228338
000390 db 94 e5 bb 0a 64 1d 3d 09 c4 35 3d d8 ee 1e 3d
       -0.0070062703 0.038425483 0.044376407 0.038801998
0003a0 53 9c b0 3d 45 9d c6 3c 01 3c 4f bc 03 67 a3 3d
       0.086235665 0.024244914 -0.012648583 0.07978632
0003b0 a8 22 e3 3c c8 2b 6a 3d 76 15 07 3d 45 9b 52 bd
       0.027726486 0.05717066 0.03297945 -0.051417608
0003c0 8d df 77 3b 80 1a 78 3d 09 2e 33 bd d8 6f 1d 3d
       0.0037822456 0.060572147 -0.043745074 0.03843674
0003d0 de b1 1c 3d 59 0c aa 3c a6 e4 76 3c dc 3d 0a 3d
       0.038255565 0.020757841 0.0150691625 0.0337504
0003e0 c9 a9 a2 3d b2 cf f2 bc 52 8c e2 bc ba c6 51 3c
       0.0794254 -0.029640052 -0.0276548 0.012803728
0003f0 6a e0 ab bc 1c f4 64 bb 88 ee 55 3c a1 ba 35 bd
       -0.020981032 -0.003493554 0.013057359 -0.044367436

fc1.0.bias f4 [120]
000000 a0 ad 07 3c eb 94 06 3b 32 03 f9 3c 00 02 e7 bc
       0.0082811415 0.002053554 0.030397031 -0.028199196
000010 55 48 bb bc d8 f3 37 bc fe 71 da 3c 68 a6 a9 bc
       -0.022861639 -0.0112275705 0.026665684 -0.020709231
000020 f7 d1 2b bd de 15 30 3d 12 91 fc bc 3e 07 15 bd
       -0.041948285 0.042989604 -0.030830894 -0.03638386
000030 0f 2a 1b 3d 3d dc 0d bd 21 33 a9 3c 42 b6 32 bc
       0.037881907 -0.034633864 0.020654263 -0.010907711
000040 78 70 3c bd cd 5b f0 3c d1 2b a1 bc f4 72 03 3d
       -0.046005696 0.029340649 -0.019674214 0.03209205
000050 89 d7 36 3d 59 7b 2b 3d a9 da 58 3c f6 e0 14 3d
       0.044639144 0.04186568 0.013235726 0.036347352
000060 93 5d a6 3c c2 35 c2 3c f2 7c de ba 8c ac ce 3c
       0.020308292 0.023707274 -0.0016974492 0.025228761
000070 a2 69 68 b9 d6 37 19 3d 50 04 14 3d 6c 57 d9 bc
       -0.00022164595 0.037406765 0.036136925 -0.026530944
000080 36 a5 a3 3c 6f f8 26 3d b3 2c 4c 3c f7 ee 83 3c
       0.01997624 0.04076427 0.012461829 0.016105158
000090 64 2c 12 bc 37 31 20 bc a4 da cf 3c 00 a9 82 3c
       -0.008921716 -0.009777359 0.02537281 0.015949726
0000a0 4e d8 96 bc c8 f8 87 3a 92 08 c7 3c 91 7a 27 3c
       -0.018413689 0.0010373825 0.024296079 0.010222093
0000b0 e3 4f 5c 3c 74 28 d8 3b c5 45 00 bd 5c 62 0b bd
       0.013446781 0.0065966193 -0.031316537 -0.03402935
0000c0 e1 9b b7 bc 96 fc 3c bc 4d 2f a8 3c 40 72 9f 3b
       -0.022413196 -0.011534831 0.020530367 0.0048659146
0000d0 12 c8 1a bc 74 0a 1d 3d 76 04 c8 bc bf 85 7b 3c
       -0.009447115 0.038340047 -0.02441619 0.015351712
0000e0 f0 20 50 bc 80 aa 3c bc bd bc 99 bb 58 8e 34 bd
       -0.012703165 -0.01151526 -0.004691689 -0.044081062
0000f0 3a fd 07 3d 04 98 11 3d 03 f8 b0 3c 54 3d 1f 3d
       0.03320048 0.035545364 0.021602636 0.038876846
000100 fe ff b1 3a be 88 3f bc 43 b4 2a bc 82 15 ba bb
       0.001358032 -0.011690317 -0.010418954 -0.0056788335
000110 28 f8 f9 39 91 a8 fd ba 06 e0 39 3d bd ec bc bc
       0.00047677872 -0.0019352605 0.04537966 -0.023062104
000120 c7 d6 ae 3c d2 a4 1b bd 6e f4 31 bd d2 eb 65 3c
       0.021342648 -0.03799898 -0.043445997 0.014033275
000130 20 17 96 bc 0e e4 50 3d f9 d4 40 3d 6d de 28 3d
       -0.018321574 0.05099874 0.047078107 0.041227747
000140 5a c2 dd bb 22 4d 60 ba c5 b3 b3 3c 2b 49 2c 3d
       -0.0067675533 -0.00085564156 0.021936307 0.042061966
000150 d4 b5 51 3d 8e b7 10 bd 4a 00 36 3d 05 25 13 3c
       0.051198795 -0.0353313 0.04443387 0.008980994
000160 c5 e2 36 3d d4 59 56 3d 9e 55 19 bb f1 96 10 3c
       0.044649858 0.05233176 -0.002339698 0.00882505
000170 75 1a 2e 3d 22 b7 0d 3c 4b 5a 72 bc 16 a9 aa 3c
       0.0425057 0.008649619 -0.014792035 0.02083258
000180 19 1b 93 3c 9f 3a 1a bd a5 14 c9 3b be 26 a1 3c
       0.017957257 -0.03765356 0.006136494 0.019671794
000190 ff 46 65 bc 7b e0 5d 3c 53 cd a6 bc ea e8 9b bc
       -0.013993978 0.01354229 -0.020361578 -0.01903196
0001a0 52 a2 3a bd 01 62 38 bd 96 ba a3 bc 7c d2 ba 3c
       -0.045564957 -0.04501534 -0.019986432 0.022805445
0001b0 1c f2 03 bd 87 e7 48 3d ee 64 0b bd 71 90 bf 3c
       -0.032213315 0.049048927 -0.0340318 0.023384305
0001c0 18 63 02 bd bf 32 17 3c 91 df 3e bc 39 75 b0 bc
       -0.031832784 0.009228407 -0.011649982 -0.021540271
0001d0 16 0a 49 3d 26 65 04 3d a7 c3 20 3d c6 6c 80 3c
       0.049081884 0.032323025 0.03924909 0.015676867

fc2.0.weight f4 [84, 120]
000000 c3 df 1a bd 09 ab 80 bd 0e 65 6b bd 58 2b 78 3c
       -0.037811052 -0.06282622 -0.05746942 0.015147053
000010 f6 12 74 3c 71 d4 99 3c ee 35 51 bd bc f2 2e bd
       0.014897099 0.018778058 -0.051076822 -0.04271196
000020 73 fc 0b bd 70 c9 80 bd 0a 79 37 bd f0 f5 62 bd
       -0.0341763 -0.06288421 -0.044793166 -0.055410326
000030 b7 dc 2f bc 72 3e f6 bc cf 16 b4 3d a5 77 b9 3d
       -0.010733775 -0.030059073 0.08793413 0.090560235
000040 e5 ee 4b bd 78 58 bd 3d d5 f9 10 bd 42 67 68 bd
       -0.049788374 0.0924539 -0.03539451 -0.0567391
000050 a4 d0 65 bd 4d df 36 bd 98 ce b7 bd e4 0f 30 3d
       -0.05610718 -0.04464655 -0.089749515 0.042983904
000060 07 64 8f 3d bc 4c 7b bc 61 08 ba 3c 2e bb 87 bd
       0.070015006 -0.015338119 0.022709073 -0.066274986
000070 38 ca d9 3c 4f 05 bc bd fc 67 00 bd 62 52 57 bd
       0.026585683 -0.091807 -0.031349167 -0.0525688
000080 bd 1c 11 3d 29 87 19 3d 50 90 44 bd 30 8c 5e 3d
       0.035427798 0.037482414 -0.04798919 0.054332912
000090 32 85 a4 bc 5f ce a8 3d 0d c1 6d 3d 31 c8 ef bc
       -0.020083044 0.08242487 0.058045436 -0.029270263
0000a0 5d cf 9b bb 87 b9 09 bc 01 53 9d 3d 32 11 ac bd
       -0.0047549442 -0.00840605 0.07681847 -0.08401717
0000b0 d3 d9 39 bd 72 15 a9 bd 1d 2b b9 3c 2f 09 b0 bb
       -0.04537375 -0.082560435 0.022603566 -0.0053721885
0000c0 5d 5b 8f bc d4 5f 6a 3d b0 73 46 3d 1f 0c 1b 3d
       -0.01749962 0.057220295 0.048450172 0.037853356
0000d0 62 88 7f 3d c6 fe b6 3d 3d d6 87 bd 8c a7 7b bc
       0.062385924 0.08935313 -0.066326596 -0.0153597705
0000e0 e4 f5 8d bd db c8 9f 3d 03 ed 06 bd 7b 44 8d 3b
       -0.069316655 0.07801982 -0.032940876 0.004311142
0000f0 d8 75 9b 3d 19 64 47 3a 6c c5 f7 bc 5d 53 a3 bd
       0.07590836 0.0007606163 -0.030245505 -0.07974885
000100 e2 5c 85 3c 2c 76 a8 bd 0a 5c ad bd 37 a4 7d 3d
       0.016279642 -0.082256645 -0.08464821 0.061924186
000110 c0 4c ab bd 26 48 98 bb 7a 6d 30 3d 28 77 40 3b
       -0.08364248 -0.0046472726 0.043073155 0.0029367898
000120 6c 15 41 3c b0 db 72 3d af 54 36 3d 59 75 7a bd
       0.0117848925 0.05929154 0.044514354 -0.061147068
000130 9c 8b a1 3d 61 6b ab 3d 54 aa a4 ba d0 63 4f bd
       0.078879565 0.0837009 -0.0012562969 -0.050632298
000140 4b 73 3e bd ae 80 4f bd 65 3c 57 3d a6 3e 76 bc
       -0.04649667 -0.050659828 0.05254783 -0.015029585
000150 79 2b bb 3d fd 04 90 bd ee 6f 2a bd 1f a9 2b 39
       0.09139151 -0.070322014 -0.04161065 0.00016370833
000160 e1 26 4c bd 1c 13 bf bc a9 11 57 3d 52 ed 78 bd
       -0.049841765 -0.023324542 0.052507076 -0.0607732
000170 e4 81 a8 3d 67 f2 5f bd 45 c7 b3 bd 72 10 bb 3c
       0.082279 -0.054674532 -0.08778242 0.02283499
000180 1c 23 8b 3d 1d 1f c6 39 a9 60 3e bd 71 af 7a 3d
       0.06793806 0.00037788684 -0.0464789 0.06120247
000190 5e 55 c5 3b 94 d4 58 3c 63 f5 be bd bb 7e 44 3d
       0.0060221395 0.013234276 -0.093241476 0.047972422
0001a0 54 b8 9e bd 6b b6 5a 3c eb 02 0e bc c6 36 91 bc
       -0.077500015 0.013349156 -0.008667688 -0.017726313
0001b0 ef 3d 11 3c da 15 74 bd fd 5c 93 3d 28 f8 c3 bb
       0.008864864 -0.05959115 0.071954705 -0.0059805103
0001c0 a1 24 b4 3d 96 51 3c 3c 4e 3d 21 3c a6 ff 4c 3d
       0.08796049 0.011494061 0.009841276 0.050048493
0001d0 42 a8 92 bb 53 02 c6 bc 93 b4 df bc fc 8c 91 3d
       -0.0044756243 -0.02417103 -0.027307784 0.07106969
0001e0 8a 43 cb bc 54 40 9d 3d f3 85 74 3d 4a 4b 02 be
       -0.024812479 0.07678285 0.059698056 -0.12724033
0001f0 cb 59 bb 3d 9d a9 03 3e dd 18 ee 3d e1 54 ab 3d
       0.09147986 0.12857671 0.11625836 0.08365799
000200 98 34 ad bd 89 c4 03 bd 12 de b4 3d f5 0f ce bc
       -0.08457297 -0.032169852 0.08831419 -0.025154093
000210 41 09 08 3e 85 b9 8a 3d 60 52 35 bd 9b 7f 1d bd
       0.1328478 0.06773666 -0.044268012 -0.038451772
000220 d1 a3 12 bd 37 9d 86 bc fc 52 37 3d 1b c5 5f 3c
       -0.03580076 -0.016432388 0.044756874 0.013657833
000230 13 3d 91 bd ec e5 9e 3d b5 f6 2b bc 5f b4 df 3d
       -0.07091727 0.07758698 -0.010495831 0.10923075
000240 cb 54 52 bb 6d 07 49 bc 2d 53 16 3d 8e 68 6d bd
       -0.0032093998 -0.012269837 0.036700416 -0.05796104
000250 52 a8 0b 3e 1c 71 0a 3d 18 9e 2e bc 36 a5 b8 bd
       0.13638428 0.033799276 -0.01065781 -0.090158865
000260 62 22 8a 3b 31 99 3d bd 94 0d 04 bb ee dc 7b 3d
       0.0042155245 -0.046288673 -0.0020149695 0.06148999
000270 86 82 a6 bd f9 f1 36 3d c8 ce a5 bd 82 30 0a bc
       -0.08130364 0.044664357 -0.08096081 -0.008434417
000280 4e f0 25 3d b4 da c2 3d 0a 67 76 bd b6 93 dd bc
       0.040512376 0.095143706 -0.06015686 -0.027047973
000290 ff c4 23 bd f5 b3 d6 bd c0 19 91 bd 95 d3 9a bd
       -0.039982792 -0.10483543 -0.070849895 -0.07559887
0002a0 76 d1 12 bb 33 3f 95 bd 48 de 06 bd cd 75 0e be
       -0.002240268 -0.07287445 -0.032926828 -0.13912125
0002b0 4a 70 ae 3d 9c 5c f4 bc c6 cc 88 3d 61 5d b4 3d
       0.08517511 -0.029829316 0.066796824 0.08806873
0002c0 cd 89 91 3d cc 0d 0a bd 50 a6 2b bd f0 ca dc 3d
       0.071063615 -0.033704564 -0.041906655 0.10780895
0002d0 1b 2c 4c 3d f0 ed 34 3c 9c 8d f7 bc 5e 9e 96 3d
       0.04984675 0.011043057 -0.030218892 0.07354425
0002e0 79 86 9c bd d9 18 d2 bc 6c 11 68 3c 4e 34 dd 3c
       -0.07642836 -0.025646614 0.01416431 0.02700248
0002f0 70 ce f1 3c 41 69 c5 3d 73 f8 99 bd 07 c9 03 3d
       0.029517382 0.09639216 -0.07518091 0.032174136
000300 15 dd 25 bd dc e8 8b 3d 0c 68 bb 3d da aa 89 bd
       -0.040494043 0.06831524 0.09150705 -0.067220405
000310 1a a5 df bc 1e e7 58 3d bc ed 02 bd 3c 97 88 bb
       -0.027300406 0.052954786 -0.031965002 -0.004168419
000320 0f cb 86 bd 78 4a 2a 3d df 66 ac bd a1 c8 80 3d
       -0.06581699 0.041574925 -0.084180586 0.06288267
000330 01 24 00 bd 52 81 1e bc 98 ff c6 bd 80 24 b5 bc
       -0.031284336 -0.009674387 -0.097167194 -0.022112131
000340 55 25 68 3d 10 76 38 3c ad fa 37 bd 70 f6 d8 bb
       0.056676228 0.011258617 -0.044916797 -0.0066211745
000350 18 95 ec bb 17 1f 73 3d 6a 38 8b 3c 64 d0 9d bc
       -0.007219922 0.05935582 0.016994674 -0.019264407
000360 02 70 92 bc 5a 63 9b bd c2 4c bc bd ff e5 b1 3d
       -0.017875675 -0.07587309 -0.09194328 0.086864464
000370 a8 fd 11 3b f4 7c 78 bd 7d d1 ee 3d 3b bd 01 3d
       0.0022276435 -0.06066604 0.116610505 0.031674605
000380 3e d1 90 3d dc ce be bd 66 0b 9c 3d ca ae 85 bd
       0.0707116 -0.09316799 0.076193616 -0.06527479
000390 51 43 dc bb ed 54 6e bd b5 92 b3 bd a1 cd 27 bb
       -0.006721892 -0.05818646 -0.087682165 -0.0025604742
0003a0 b1 f0 ce bc 1b 53 a8 3d 3a 55 ad 3d 3e b0 94 3d
       -0.025261255 0.08218976 0.08463521 0.07260178
0003b0 55 cf 37 3c ad 61 30 3d 06 f6 91 3d 5c 90 1d 3c
       0.011218865 0.0430619 0.07127003 0.0096169375
0003c0 8f 13 97 3d 64 76 41 3d 9a 40 9a 3d dc f6 25 3c
       0.073767774 0.047232047 0.07531853 0.010129657
0003d0 bc 85 ec bd 81 48 83 3d 03 da be 3a 2f 8c ae 3d
       -0.11548945 0.064103134 0.0014560822 0.08522832
0003e0 c6 03 0a bc 2b af af 3d 44 85 44 3d 36 f9 a9 3d
       -0.008423751 0.085783325 0.047978655 0.08299486
0003f0 48 6a 08 bd 81 82 9d 3d 4d c2 8e 3c 7a 0e 31 3d
       -0.033304483 0.07690907 0.017426634 0.043226697

fc2.0.bias f4 [84]
000000 bb 14 22 bd 10 85 ad 3d 1e 41 b3 3d 94 2f af 3c
       -0.03957055 0.08472645 0.087526545 0.021384992
000010 31 4c d1 bc 5e c2 0b bc be 0c 80 bd 73 ad 13 3c
       -0.025549026 -0.0085302275 -0.062524304 0.0090135215
000020 a6 13 8d 3d 05 59 ce 3d 10 0c 56 3c 2d 14 1a 3d
       0.06888513 0.10075573 0.013064399 0.037616897
000030 c1 08 40 3d 00 93 b2 3d d4 f5 fc bc aa 85 21 3d
       0.04688335 0.08719444 -0.030878939 0.039434113
000040 59 a0 94 bc cc 3f 18 3c 48 53 82 3c b0 19 ab bb
       -0.018142866 0.009292554 0.015908852 -0.005221568
000050 54 26 30 3d b5 87 b9 bd da 89 6a 3b 5b e8 4f bd
       0.043005303 -0.09059087 0.0035787732 -0.0507587
000060 22 2e 28 bd 07 82 59 3d bd 9f 93 bc 1c bd 7e 3d
       -0.04105962 0.05310252 -0.018020505 0.062192068
000070 88 88 db bc ba a9 6a 3d 58 a3 5a 3c 0b 78 8e bd
       -0.026798502 0.05729077 0.013344608 -0.0695649
000080 04 88 c5 3d 6d cc 8f bd 7a bf c0 3d 49 be 9c 3d
       0.096450835 -0.07021413 0.09411521 0.076534815
000090 00 87 73 3d 1f 5a 65 3d 18 d2 45 3d f9 49 5a bd
       0.059454918 0.05599415 0.048296064 -0.053293202
0000a0 15 df 88 bd dd ed a5 3d 39 08 a9 bc 43 a8 9f 3d
       -0.066831745 0.081020094 -0.020633804 0.07795765
0000b0 66 4d fb 3c 8c 77 29 bd 53 ff af 3d b1 86 30 3c
       0.030676555 -0.041373774 0.08593621 0.0107743
0000c0 73 60 a8 3a f0 8e e2 3c 0d 96 9d 3d 9f bf 90 3d
       0.0012846127 0.027656049 0.076946355 0.07067799
0000d0 3d fa 7d 3d c7 6c 98 3c 88 4f ac bd be f5 05 38
       0.062006224 0.018606557 -0.08413607 3.1938536e-05
0000e0 e6 55 22 bd 3d 7b fc bc 4f 20 c3 bd ac d8 2f 3d
       -0.0396327 -0.030820483 -0.09527647 0.042931244
0000f0 f4 73 e5 3c 69 8c 46 bc 04 88 91 bc 8e 9f 04 bd
       0.028009392 -0.012118437 -0.017765053 -0.032378726
000100 66 35 ae 3d c0 10 21 3d 9b 13 a4 bd c0 89 21 3d
       0.08506279 0.039322615 -0.08011552 0.03943801
000110 b8 81 b9 bd de 38 ca bc a5 85 1c bd 11 63 30 bd
       -0.09057945 -0.02468532 -0.03821339 -0.043063227
000120 f5 fc 8f 3d 39 60 76 3d 7d 76 bb 3a 81 84 cf bc
       0.070306696 0.06015036 0.001430228 -0.025331737
000130 be 3f 89 bd ac 01 6d 3d d6 12 a7 3d ec b6 a5 3d
       -0.06701611 0.057862923 0.081578895 0.0809153
000140 46 a3 6b 3d 67 4a 8e bb d3 e4 4c 3d 8f 9e 9b 3d
       0.057528757 -0.0043423655 0.05002291 0.07598602

fc3.weight f4 [10, 84]
000000 e5 7f 33 bc 78 46 91 bd 8c 4e 1b be 9d 3d 1d 3e
       -0.010955785 -0.07093519 -0.15166682 0.15355535
000010 bc 08 a7 bd a9 f5 31 bd 69 d5 4d 3e bc 62 b4 bd
       -0.08155963 -0.04344717 0.20100941 -0.088078946
000020 e9 2c 89 3d c9 0e 15 bd e7 5c a6 3d f6 c4 af bd
       0.06698019 -0.036391053 0.081231885 -0.08582489
000030 64 93 2f be 84 f2 40 be 49 38 cc bd ae 96 af 3d
       -0.17146069 -0.18842512 -0.09971673 0.08573662
000040 5d c9 72 bc 9f d6 61 bc fc 2d f6 bb f5 32 04 3e
       -0.014818517 -0.01378408 -0.007512806 0.12910064
000050 b4 b7 69 be 1d c6 ab 3d 99 d2 23 3e 16 96 16 bd
       -0.22823983 0.083873965 0.15998305 -0.036764227
000060 d0 65 7f 3c a0 a9 d8 3d 80 95 7d bd 79 0c 2a 3d
       0.015588239 0.105792284 -0.061910152 0.0415158
000070 dd d8 b9 3d c0 ea e7 bd 13 29 10 be 3c 32 20 be
       0.090745665 -0.11324072 -0.14078169 -0.15644163
000080 90 8e d8 bd 61 6a 64 bd ee 91 40 3e 18 1f 65 bd
       -0.10574067 -0.055765513 0.18805668 -0.055937856
000090 cc c0 aa bd d7 7d 2f 3e 1f e7 59 3d aa 7b d1 3c
       -0.08337554 0.17137848 0.05319893 0.025571663
0000a0 d7 9d d2 bd b3 93 83 bd 25 34 e8 3c 8b 6b 99 3c
       -0.10284012 -0.06424656 0.028345177 0.018728038
0000b0 8f bf 92 3d 10 f5 7b 3d 0f 35 1a be f3 89 d3 3c
       0.07165443 0.061513007 -0.15059303 0.025822615
0000c0 7e 67 df bd 27 d0 8d bd 0b 2c a7 bd b5 e4 c8 bc
       -0.109084114 -0.069244675 -0.081626974 -0.024523119
0000d0 a5 c1 37 be db a8 2f 3e 9a 33 87 bd ab 90 74 3d
       -0.17944963 0.17154257 -0.06601639 0.05970828
0000e0 a9 64 de 3d 47 d5 97 3d bd 38 05 bc a9 ff 38 be
       0.10859043 0.07413726 -0.008131203 -0.18066277
0000f0 31 ba 90 bd 6d cc 20 3d 97 90 01 3e 1d 7a 22 3e
       -0.07066763 0.039257456 0.12652813 0.15866895
000100 01 b6 50 be 7a 77 ed bb 99 75 8d 3d 6b 52 f8 bd
       -0.20381929 -0.0072469087 0.069071956 -0.12125095
000110 da 20 02 bc 7d 56 9b bd 99 69 69 bc b3 3c cc 3d
       -0.007942403 -0.07584856 -0.014246368 0.09972515
000120 f3 9e 1b 3e 80 5e 00 bc 6a 5d ca 3d 3d 37 ca 3d
       0.15197353 -0.007835031 0.098810986 0.09873817
000130 4e 33 38 3c 41 da 32 bd dc ee 1a 3e a5 8e 29 be
       0.011242701 -0.043665174 0.1513018 -0.16558321
000140 4e d1 01 3e 30 48 a5 bd cd 35 12 3d 12 4c b6 bd
       0.126775 -0.08070409 0.03569584 -0.08901228
000150 5d b0 93 3c 12 b8 63 bd 9d 19 58 3e 42 bb 37 3e
       0.018028433 -0.055595465 0.2110352 0.17942527
000160 7d 2c 29 be b4 b0 82 3d 52 04 11 be 84 ff 32 bc
       -0.16520877 0.0638136 -0.14161804 -0.0109251775
000170 a9 77 0a bd e3 34 53 3e 58 2a 1b be 1d ff 39 be
       -0.033805523 0.20625643 -0.15152872 -0.18163724
000180 5e 96 14 be 30 93 84 3e bf 34 bf 3a e1 73 32 3e
       -0.14510486 0.25893545 0.0014587863 0.17427017
000190 23 2b 01 3e 46 cd ad 3d 26 d6 86 bd 35 8e 1c 3d
       0.12614112 0.084864184 -0.06583814 0.038221557
0001a0 91 6c 0d 3e ef 2f 01 3e 32 34 b3 3d ed 69 be bd
       0.13810946 0.12615941 0.0875019 -0.092975475
0001b0 ac e3 11 bd 2d 83 9b bd b7 a0 37 3d 26 dc 8b 3d
       -0.035617515 -0.07593379 0.044831004 0.06829099
0001c0 55 87 2e 3e 74 e9 35 3e 75 0f e3 bd a6 67 08 3e
       0.17043813 0.17764837 -0.110869326 0.13320789
0001d0 54 0b 2c 3c 3f 2b 9f bd cb 7f 5f bc 38 6f 6b bd
       0.010500748 -0.077719204 -0.013641308 -0.057479113
0001e0 66 98 7d be 70 28 b0 bc eb b1 ff bb 4b a4 8c 3c
       -0.24765167 -0.021503657 -0.007803192 0.017168185
0001f0 70 8a 57 bd 4c 4c 11 bd c6 c9 a7 3c ae 58 02 3e
       -0.05262226 -0.035473153 0.020481955 0.12729141
000200 66 02 87 bd 38 b6 6f be a7 b1 fc bd a7 a5 38 bc
       -0.06592254 -0.23409355 -0.12338572 -0.011269963
000210 7d ad 22 3e 89 0b 82 bd 18 62 0c 3e a1 29 8e bd
       0.15886493 -0.063498564 0.13709295 -0.06941534
000220 2f 73 b6 3b df bc 14 3e 94 29 a4 bc 05 65 5c be
       0.00556793 0.14525174 -0.020039357 -0.21522911
000230 87 15 1f be 7a 24 c8 3c 9a a4 29 bd ce 13 bf 3c
       -0.15535556 0.024431456 -0.041416742 0.023324873
000240 b2 80 ca bd 41 9d fe bd 44 93 34 3d 42 ba e0 3d
       -0.09887828 -0.124323376 0.044085756 0.10973026
000250 4a 52 81 bd 69 bb 0e 3e 30 40 c0 bb ff 31 b2 bd
       -0.063145235 0.13938679 -0.0058670267 -0.08700942
000260 be a8 d4 bd be d0 cf 3d e8 fa ec bb 0f 45 52 bd
       -0.103837475 0.10147236 -0.007232059 -0.05133539
000270 c4 59 4e 3d 08 99 80 bc f2 90 97 3c 6a 2b 81 bc
       0.050378576 -0.015697971 0.018501732 -0.015767772
000280 bd 5e 1c 3d 24 bc ba bd 18 ef 39 be 97 7c 9c bc
       0.038176287 -0.09117916 -0.18157613 -0.019102378
000290 53 32 14 be cf 93 df bd 50 f8 c7 bd 0b 66 6c 3c
       -0.14472322 -0.10916864 -0.09764159 0.014428626
0002a0 a6 c6 75 bd d5 31 83 3d f0 e1 89 bd 28 27 f9 bd
       -0.0600039 0.06405989 -0.06732547 -0.121656716
0002b0 68 66 1c be c5 95 88 bc df 03 bc bc fc 2f 24 3e
       -0.1527344 -0.016672978 -0.022951065 0.1603393
0002c0 7d 32 2f be d4 ea 44 3d 18 01 3b be d6 c8 03 bd
       -0.17109104 0.048075512 -0.18262136 -0.032173954
0002d0 e1 9e 0d 3e 43 ef 32 be 64 90 01 3d 5a 49 8d 3d
       0.13830139 -0.17474084 0.031631842 0.06898756
0002e0 54 ef 58 3d 30 c0 a0 3d bc 2b 0a 3c c2 72 c0 3d
       0.052962616 0.07849157 0.008433279 0.09396888
0002f0 22 f1 13 be 5e 89 13 3e cc 92 ad bc 6b 8f 70 3d
       -0.14447454 0.1440787 -0.021188162 0.058730524
000300 f6 12 82 3e ff 46 b0 3d cd e8 4c bd 49 90 d4 3d
       0.2540509 0.086072914 -0.050026704 0.10379083
000310 67 0e 84 3d ef 3b 53 3e 0c 03 38 3e 7e 29 27 3e
       0.064480595 0.20628332 0.17969912 0.16324422
000320 5d e2 12 be aa 9e a6 3c 03 59 10 be f5 73 df 3d
       -0.14344163 0.020339329 -0.14096455 0.10910789
000330 f8 d8 c5 bc 76 5d 8a 3d cd d6 07 be 9c fb 24 bc
       -0.02415131 0.067561075 -0.13265534 -0.010069754
000340 60 c9 e8 bc 16 ff fc 3d 98 b8 10 bb ef 03 d8 3c
       -0.028416336 0.12353341 -0.0022082683 0.026369063
000350 5d 6c 3a 3c de 09 72 bd 9b a4 15 bc e4 59 04 be
       0.011378375 -0.05909144 -0.009133483 -0.12924916
000360 f4 4f d7 bd ba 3f 09 bc c0 c6 5b 3d d5 45 81 3d
       -0.10513297 -0.00837701 0.05365634 0.063121475
000370 43 1f 8f bd b2 47 2b 3d 9a d2 40 3d cd 99 69 3d
       -0.069883846 0.04181642 0.047075845 0.05703144
000380 4a bf 25 be 6d 9f 17 3d 88 6a 77 3d d2 12 3a bd
       -0.16186252 0.037017275 0.06040433 -0.045428105
000390 49 5e 71 be 3c ef 81 bd 17 a2 3e 3d f2 0b 32 3e
       -0.23571123 -0.063444585 0.0465413 0.1738737
0003a0 84 e5 1e be d3 c7 30 be cb 4a a2 bd 28 3b 8e 3e
       -0.15517241 -0.17263727 -0.07924422 0.27779508
0003b0 0a e1 93 bc 03 5e b7 bc e4 85 00 3e 89 a5 63 3d
       -0.018051643 -0.022383695 0.12551075 0.05557779
0003c0 c9 90 09 3d a6 35 7b bd 2f 32 c5 bd 22 73 80 3d
       0.033585344 -0.06133046 -0.096287124 0.0627196
0003d0 fe 0b f2 bd 2c 3a 90 3d 8e e6 0e 3e 82 ed 22 be
       -0.118186936 0.070423454 0.13955137 -0.15910915
0003e0 7d 0d ea bd 48 43 f1 bc e4 48 2b 3e 1b 3b 32 be
       -0.11428354 -0.029451028 0.16727024 -0.1740536
0003f0 aa 74 8e bd 23 0f 55 bd e3 9b a1 3d b4 8c 21 3d
       -0.06955846 -0.05201639 0.07891061 0.039440826

fc3.bias f4 [10]
000000 38 86 85 bd 84 71 19 3e 13 95 40 bd cd 12 f5 bb
       -0.06519741 0.14984709 -0.04701717 -0.007479048
000010 12 85 d9 3c ca 40 4e 3d a1 b9 d3 3c 62 51 a1 3d
       0.02655271 0.050354756 0.02584535 0.07876851
000020 2a 21 0c 3d 3a 1f 18 bd
       0.034211315 -0.037139155
